faceforensics++_models/Mesonet/mesoinception.pth (torch, 125244 bytes, 32 tensors)

Incption1_conv1.weight f4 [1, 3, 1, 1]
000000 42 6e 05 bf c0 18 56 be 30 c0 f6 3e
       -0.52121365 -0.20907879 0.48193502

Incption1_conv2_1.weight f4 [4, 3, 1, 1]
000000 a8 8b e5 3e d0 21 b8 be da c6 8c be 77 39 83 be
       0.44833112 -0.35963297 -0.27495462 -0.2562978
000010 9b 55 fa be 31 83 92 be ca 4b eb be 7b 47 23 be
       -0.48893437 -0.28615716 -0.4595626 -0.15945236
000020 e4 82 f7 be 10 96 e7 3e 80 06 41 bd aa 1d 97 3e
       -0.4834205 0.45231676 -0.04712534 0.2951482

Incption1_conv2_2.weight f4 [4, 4, 3, 3]
000000 09 f3 9a 3d 96 3c 19 3d 79 08 44 3d 19 4a df 3d
       0.075658865 0.037411295 0.047859643 0.10902805
000010 f0 5d 43 3e db 02 e7 3d b2 e4 29 3e 49 44 21 3e
       0.19078803 0.112798415 0.16591147 0.15748705
000020 ff dc ea bc ba 2c 38 be d6 0d 2a be c7 85 4e 3d
       -0.028669832 -0.17985812 -0.1660684 0.05042055
000030 19 1b 0e 3e 3e 7a 15 3e 78 b7 01 be e9 11 87 3d
       0.13877524 0.14597413 -0.12667644 0.06595213
000040 0a c5 04 be f2 7c 15 bc 01 00 81 3d d8 cf 56 3d
       -0.1296579 -0.009124028 0.06298829 0.05244431
000050 ff 16 eb bd 1a 87 31 3e a3 d1 8b bd 55 c2 d4 bd
       -0.114789955 0.17336693 -0.068270944 -0.103886284
000060 c9 13 8f bc 1b 31 b2 bd 57 8c f2 bd 7c 53 be bd
       -0.017465489 -0.087007724 -0.11843174 -0.09293267
000070 3e 53 28 bd ed af e2 3d 31 33 3d bd 55 88 b0 3c
       -0.04109501 0.110687114 -0.046191398 0.021549383
000080 30 aa e0 bc 91 02 f4 bd cc 58 1c 3e ba b9 2b 3e
       -0.027424902 -0.11914552 0.15268248 0.16770068
000090 ad 3d da 3d 8f 7d 63 bd 94 d2 02 3e 1c d0 9b 3d
       0.10656295 -0.055539664 0.12775642 0.07608053
0000a0 6a 75 02 3c a4 fc 10 be 98 f2 f1 3d 95 93 c2 bd
       0.007962564 -0.14158875 0.11813849 -0.09500805
0000b0 c6 8f 34 3d 16 00 10 3d 9a 9c e4 3d f2 21 e8 3d
       0.044082426 0.035156332 0.11162682 0.113345996
0000c0 22 f8 f9 bd 9f a6 f1 3d 0c 7d 4f bd 00 ce 91 bd
       -0.12205531 0.117993586 -0.050656363 -0.071193695
0000d0 83 9c 42 bd 29 30 07 bc 79 57 53 3d 55 1a 9a bd
       -0.047512542 -0.008251228 0.051597092 -0.07524554
0000e0 f1 51 71 bd 3a 6e 61 3d 17 bf 7c 3c 6d fb 2e 3e
       -0.058916036 0.05503676 0.015426419 0.17088099
0000f0 b3 09 41 be 65 2f 2a be 73 d1 d7 3d 44 d0 15 be
       -0.18851356 -0.16619642 0.10537996 -0.14630228
000100 bd 79 37 be 8e b2 b6 bd 74 25 f0 bd 0b e9 0d 3d
       -0.17917533 -0.08920775 -0.117258936 0.034646075
000110 36 0c 25 3e d3 a7 eb bb 54 7c 8e bd 6d a7 02 bc
       0.1611794 -0.007191637 -0.069573075 -0.007974488
000120 18 86 a4 bc 60 a1 92 3d 55 af ae ba 9d 7a f6 bc
       -0.020083472 0.07159686 -0.00133274 -0.030087763
000130 05 ec 82 bd 0f 24 0f bd 41 d8 86 3d 91 d9 17 3c
       -0.063926734 -0.034946498 0.06584216 0.0092681805
000140 ff b6 15 3d ad 50 04 bc a8 b5 e6 bd 0f 2e ac 3d
       0.03655147 -0.008075875 -0.11265117 0.084072225
000150 84 a1 21 3d b3 df 12 3e 9e 63 1b be 4c 41 de 3d
       0.039460674 0.14343147 -0.1517472 0.10852298
000160 0e 07 60 bd db 0b 2a be 93 09 10 3e e9 ae 88 3d
       -0.054694228 -0.16606085 0.14066152 0.066739865
000170 a4 af 98 3d 1e 29 1f be 0a ff 1f 3e bc d2 4d be
       0.07455376 -0.15543029 0.15624633 -0.2009992
000180 05 ac d9 bd e6 dd 8d bc e3 03 5a 3c 21 04 e4 bd
       -0.10628513 -0.017317723 0.013306591 -0.111336
000190 ca f1 04 be 1d 7a c3 bd 3a 07 39 3e 2e 17 09 be
       -0.1298286 -0.09544776 0.18069163 -0.13387749
0001a0 ca 78 06 3e cb 1c 1b 3e eb 5b 15 be c8 af a1 3d
       0.13132015 0.15147702 -0.14585845 0.07894856
0001b0 e8 4f b0 3d ce 44 9d 3d 9f 95 18 be 4f 23 10 bc
       0.08608991 0.07679139 -0.14900826 -0.008797481
0001c0 76 17 ae bd a4 a0 05 3e 8d 76 b5 bd ad 3e d8 bd
       -0.085005686 0.13049561 -0.088605024 -0.105588295
0001d0 1c ec 87 bd 72 b8 3b 3e e7 88 85 3e 15 cb eb 3d
       -0.06636831 0.18332079 0.2608101 0.11513344
0001e0 2d cf eb 3d b8 df 86 bd 18 66 d1 3d da 45 c9 bd
       0.11514125 -0.0658564 0.10224551 -0.09827776
0001f0 90 cf 12 be 43 47 4c be 63 f8 5b bd e4 03 20 3e
       -0.14336991 -0.19949059 -0.053703677 0.15626484
000200 ca 16 f7 3d 1c b4 2c 3d 27 73 92 3d 17 fc 29 be
       0.120648935 0.042163953 0.0715087 -0.16600071
000210 36 fc 26 3d 48 8b a4 bd e7 be 49 bc 51 05 d7 bd
       0.04076787 -0.08034378 -0.012313581 -0.10499061
000220 48 75 b0 bd 84 f0 02 bd 3b 26 6d 3e 60 20 8b bd
       -0.086161196 -0.031967655 0.23159115 -0.067932844
000230 be f9 4b bc 88 b2 61 3d f4 d4 d5 3d 8e 20 98 bd
       -0.01244968 0.0551019 0.10441008 -0.07428084

Incption1_conv3_1.weight f4 [4, 3, 1, 1]
000000 38 b9 7e 3e db 3f 10 bf 28 4d a4 3d 10 28 3f be
       0.24875343 -0.56347436 0.08022529 -0.18667626
000010 93 54 70 3e 4e 8b 82 3e 33 00 27 3e 5d a1 0e 3f
       0.23469763 0.25496906 0.1630867 0.5571497
000020 ff 7c c6 3e 94 61 a5 3e f4 16 61 be dc ea 48 3d
       0.3876724 0.3230101 -0.21981412 0.049052104

Incption1_conv3_2.weight f4 [4, 4, 3, 3]
000000 5e 72 cb bb af 91 28 3e 07 5d 53 bd 19 07 a8 bd
       -0.006208702 0.16461824 -0.05160239 -0.08204479
000010 45 4f 89 3d c7 cb fa bc 39 53 e5 3d 6b d6 e8 3d
       0.067045726 -0.030614747 0.11197514 0.11369022
000020 3b 8c e6 3c cd bc 43 bd 13 8b 8e bd bb 12 b4 3d
       0.028143039 -0.047787476 -0.0696012 0.08792635
000030 10 85 9e 3d ad 18 02 be c5 64 a3 bd 9a dc 49 bd
       0.077402234 -0.12704726 -0.07978205 -0.049282648
000040 e2 f2 88 3d 97 58 33 3d 93 0c 5f 3e f5 07 e5 3d
       0.06686951 0.043785658 0.2178214 0.11183158
000050 ad 35 d1 bd 3e e0 a9 3d e3 64 26 bc 75 df f4 bd
       -0.10215316 0.08294724 -0.010155889 -0.119566835
000060 f3 c7 a3 3d 60 c2 35 be d5 ca 91 3d fb 70 c3 bd
       0.07997122 -0.1774993 0.07118765 -0.09543034
000070 8c 92 81 3d 96 e0 1d be 6f bd 4e 3e d3 ca 1f 3e
       0.0632678 -0.15417704 0.2018945 0.15604715
000080 d7 91 91 3c f9 e7 02 3e 6b 52 80 bd 58 a5 2c 3d
       0.017769737 0.12783803 -0.0626572 0.04214987
000090 46 0b c8 bd fb c3 86 bd 5d e5 05 3e e9 f8 0d be
       -0.09767775 -0.06580349 0.13075776 -0.13864483
0000a0 1c 74 33 3e 86 1f 1d 3e 2c ce 62 bd 5e a2 0b bc
       0.17524761 0.15344056 -0.055372402 -0.008522598
0000b0 6c 7c ab 3c d1 34 f1 bd 72 77 0a be 0e 51 dd bd
       0.020933352 -0.11777652 -0.13522127 -0.108064756
0000c0 69 19 10 3d a6 8a 6b 3d 0b 56 2d bd 00 da c0 bd
       0.035180483 0.057505272 -0.042318385 -0.0941658
0000d0 d9 60 e0 bc f0 4e fb 3d 33 25 d1 3d 09 dd 01 be
       -0.02738993 0.122709155 0.10212173 -0.12681974
0000e0 fa 41 5c 3d 91 f7 14 3e da 6f 4c be 28 29 f3 3b
       0.053773858 0.14547564 -0.19964543 0.0074206777
0000f0 4e d3 6d bd 4f 5f 23 3e 47 3a 09 3d 28 fe 21 3e
       -0.058062844 0.15954326 0.033502843 0.15819609
000100 41 b5 fd 3c bd b6 e3 bd a5 d0 17 be cc a2 02 3e
       0.030970218 -0.11118839 -0.14825685 0.12757415
000110 9a a8 f8 bd 1b 73 02 be 39 f8 cc bd e4 2a 51 bc
       -0.12141533 -0.12739222 -0.10008282 -0.012766574
000120 62 f0 db 3d fc 11 ea bd 8d d2 14 bd b4 8f b4 3d
       0.10739209 -0.114292115 -0.03633361 0.08816472
000130 f4 4c 0a 3b 9c 29 e3 bd c4 8f ba bd a2 8a 2c be
       0.0021102997 -0.11091921 -0.09109452 -0.16849759
000140 49 b5 5b be 4b 03 cd 3d 5e 15 3b 3c fd a7 32 bc
       -0.21455874 0.10010394 0.011418669 -0.010904309
000150 2d 8c ff 3d 67 cc cb bb a9 a3 e4 3d cf 21 5a 3d
       0.12477908 -0.006219435 0.11164028 0.0532549
000160 8d a2 60 bd 79 aa f8 3c d2 c1 09 3e f1 20 b2 3d
       -0.05484252 0.030354725 0.13452843 0.08697689
000170 0a f3 c2 bd 39 5b 0c be 7f 2d 24 3e 48 06 34 3e
       -0.09519012 -0.13706674 0.1603298 0.17580521
000180 56 95 2b 3e 7a dd 7c 3c fe e7 c1 3d 53 2f 16 3e
       0.16756186 0.0154336635 0.09468077 0.1466649
000190 53 82 11 be 5d 37 48 bd 67 97 a4 bd 9a c8 87 bd
       -0.14209871 -0.048880924 -0.0803669 -0.066300586
0001a0 fb 47 00 3e 64 34 e8 bc 8a d7 0e be c4 f6 19 3d
       0.12527458 -0.028345294 -0.13949409 0.03758885
0001b0 d4 b6 15 be 13 1a 3c 3d 41 a6 f0 bc e8 c1 ea 3d
       -0.14620525 0.045923304 -0.029376151 0.11462766
0001c0 6e a4 1b be 3b 58 71 bd 6a 54 17 bd da 40 f3 3d
       -0.15199444 -0.058922034 -0.036945738 0.11877604
0001d0 1b 6e 02 be f6 e5 28 3e 7e 64 a4 3d c4 e4 34 be
       -0.12737314 0.16493973 0.0802698 -0.17665392
0001e0 24 58 82 bd 12 55 6d bd 66 dc d3 bd df 57 82 bd
       -0.06364468 -0.057942457 -0.10344772 -0.06364416
0001f0 d6 64 f9 3d 12 3e aa bd 89 e0 a2 3d 78 6f 0f 3e
       0.12177436 -0.0831262 0.07952983 0.14007366
000200 8d a6 8d bd 4b b1 bd 3d b9 8c 51 bc 2e 5a 30 be
       -0.06916533 0.092623316 -0.012789899 -0.17221901
000210 91 e3 a9 3c d7 b9 11 be 32 d0 de 3d c2 ac 3b bd
       0.020738395 -0.14231049 0.10879554 -0.04581905
000220 d6 53 b8 bd 79 d0 97 bc fe 1c b8 3d f0 83 98 3c
       -0.090003654 -0.018532025 0.08989905 0.0186176
000230 63 3c 72 3d dd e9 d5 bd 7f d5 c6 ba 9e 8d 9d 3d
       0.05913962 -0.104449965 -0.0015169828 0.07693027

Incption1_conv4_1.weight f4 [2, 3, 1, 1]
000000 9a 3e 17 3f 10 1c 88 3e c3 ad 15 3f a7 68 ca 3e
       0.590799 0.2658391 0.58468264 0.39532968
000010 44 5a 24 be c7 86 a1 3d
       -0.16050059 0.07887035

Incption1_conv4_2.weight f4 [2, 2, 3, 3]
000000 23 41 74 3e f8 26 12 3e 98 93 23 3e 00 10 f5 3d
       0.23852973 0.14272678 0.15974271 0.119659424
000010 1a ac 34 be 64 be ba 3d 91 0f 05 3e a6 65 40 3e
       -0.17643777 0.091183454 0.1299422 0.18788776
000020 e9 c3 16 3e cd 53 12 3e 13 83 21 be 8d 64 87 3d
       0.14723171 0.1428978 -0.15772657 0.066109754
000030 43 e1 9d bc 05 2b 82 3c 02 3a 10 be b8 0a ef bc
       -0.019272452 0.015889654 -0.14084628 -0.029179916
000040 5f 4c df 3d 9a 2d 65 3e 05 a5 98 3d 49 2c 68 3e
       0.109032385 0.22380677 0.0745335 0.22673143
000050 57 23 cd 3d 61 97 d2 bd eb 70 d3 3d 04 d4 04 be
       0.10016506 -0.102827795 0.10324272 -0.12971503
000060 88 54 8a be 59 19 23 3e 20 1a 1e be bc 4e c5 bc
       -0.27017617 0.15927638 -0.15439653 -0.024085395
000070 54 88 1d 3e 36 7b 2e 3d e6 e0 5d be ff 1b 29 3e
       0.15384036 0.04259797 -0.21667823 0.16514586
000080 2d 87 31 bd 00 a6 97 bd a4 be dc 3d 0e 49 90 be
       -0.043341804 -0.07404709 0.10778549 -0.28180736

Incption1_bn.weight f4 [11]
000000 c8 19 73 3f e0 bd 76 3f f7 db 7f 3f 68 91 92 3f
       0.94961214 0.96383476 0.99945015 1.1450624
000010 d1 3a 7e 3f e7 9e 81 3f 7b f6 81 3f d6 3d 7f 3f
       0.99308497 1.0126618 1.0153345 0.9970373
000020 e3 75 87 3f 11 b9 7c 3f d1 db 6a 3f
       1.0582851 0.9871989 0.91741663

Incption1_bn.bias f4 [11]
000000 fa 41 4c 3c d6 65 c4 3d 6f 09 d1 bd cb dd 5c 3d
       0.012466902 0.09589736 -0.102068774 0.053922456
000010 52 f4 29 bd 55 13 c9 3d 74 b8 3a 3d 79 44 ad 3d
       -0.041492768 0.098181404 0.045586064 0.08460326
000020 ab 30 98 3d 1f e3 e5 bc b8 23 9c 3d
       0.07431158 -0.028062401 0.07624

Incption1_bn.running_mean f4 [11]
000000 74 e1 d0 bd d6 e8 81 3d 9e 51 78 3d d9 ab 86 bc
       -0.10199252 0.06343238 0.06062471 -0.016439365
000010 f3 3b 0e 3d 35 2b d0 3c f6 32 5b 3c 95 0a 85 be
       0.03472514 0.025411228 0.013378849 -0.25984636
000020 b8 78 8b bc ee f9 5e be fa 30 dd bb
       -0.017025337 -0.21775028 -0.006750223

Incption1_bn.running_var f4 [11]
000000 20 c0 2b 3d 3a 58 5d 3d 7d 4a 90 3c c1 ad 38 3b
       0.04193127 0.054039218 0.017613644 0.0028179737
000010 02 0f f0 3c f1 92 dc 3b 4f 14 77 3a d4 6b e7 3d
       0.029304031 0.006731384 0.00094253285 0.112998635
000020 50 cc e9 3a 21 77 cc 3e 3a c7 2e 3c
       0.0017837379 0.39934638 0.0106676165

Incption2_conv1.weight f4 [2, 11, 1, 1]
000000 2d ca f6 3d 61 ac 86 3e da 2b 0a be b2 7a 76 be
       0.12050281 0.2630339 -0.1349329 -0.24070242
000010 5f de dc 3d 6e e8 59 3e 68 53 46 3e 39 db d5 3d
       0.107846014 0.21280071 0.19367754 0.10442204
000020 1d 7b 01 be 0a 7f 4f 3e c9 74 84 3e 4c e1 e8 3d
       -0.1264462 0.20263305 0.2587035 0.11371097
000030 ed 97 cb bd 14 77 0d be b4 36 7b 3b ac 6b 66 3e
       -0.09941087 -0.13814956 0.0038332166 0.22502011
000040 65 0d 87 bc 85 6d b2 3e f6 95 26 be 74 55 81 3e
       -0.01648588 0.34849182 -0.16268143 0.25260508
000050 10 5a 17 3e 37 d1 89 bd
       0.1478045 -0.06729358

Incption2_conv2_1.weight f4 [4, 11, 1, 1]
000000 2a b8 1a 3c 5a f8 25 be b6 1e 54 be f3 2e d4 3d
       0.009443322 -0.1620802 -0.2071484 0.10360517
000010 a2 af 64 3e 53 22 78 3e 38 26 da bb 00 7b 68 be
       0.22332624 0.24231844 -0.006657388 -0.22703171
000020 5b 0b b0 3e cf 6d ee bd 18 f8 b4 3d 9a 88 82 3e
       0.34383664 -0.11642038 0.08836383 0.25494844
000030 b7 0e 4a bd 6f 2b ac 3c 23 f8 40 be aa 6b 86 be
       -0.04933044 0.021016805 -0.18844657 -0.26254016
000040 19 72 c9 3d 05 0e 00 3e 43 00 88 3e 70 cc 12 3e
       0.098362155 0.12505348 0.265627 0.14335799
000050 20 f6 19 3d 1f 77 46 be 63 44 40 3d dd 95 59 be
       0.03758824 -0.19381379 0.04694022 -0.21248575
000060 1f f5 bc 3d b2 a4 cf 3d c8 ea 56 3e 49 a7 2d 3e
       0.09226441 0.10138835 0.20988 0.16958345
000070 a5 00 2e be 8e de 57 be 66 a4 7d 3d 22 ad 89 3e
       -0.16992433 -0.21080992 0.06192436 0.26889902
000080 12 81 2b be e3 0f 13 3e 53 21 1b 3d af 60 17 be
       -0.16748455 0.14361529 0.037873577 -0.14782976
000090 e5 b2 71 3e c6 17 10 3d ae d6 1c 3e bc c7 94 3e
       0.23603399 0.035178922 0.15316269 0.29058635
0000a0 f1 38 f8 3c ae 73 a1 3d 28 9c 51 be 08 70 1f 3e
       0.03030059 0.07883392 -0.20469725 0.1557008

Incption2_conv2_2.weight f4 [4, 4, 3, 3]
000000 bd 6f f9 bd ab 44 61 bd d0 46 03 be c0 02 56 3d
       -0.121795155 -0.054997128 -0.12819982 0.052248716
000010 17 7b e7 bd 86 d6 56 3d 7c fb e4 3c af f1 31 3e
       -0.113027744 0.05245068 0.027951948 0.17377351
000020 4f 9a 24 3d 12 4e 5b be e7 71 56 be 75 22 9c bd
       0.040186223 -0.214165 -0.20941888 -0.0762376
000030 05 69 44 3e 8f cf bb 3d ca aa b1 bd 08 ba e6 bd
       0.19180687 0.09170448 -0.086751536 -0.112659514
000040 e8 57 17 3e c7 73 12 3e dd e9 4b bc 44 bb 75 3d
       0.14779627 0.14301978 -0.012445894 0.059993044
000050 37 3e 19 3b fa 51 a9 bd 1a 5d ee bd ed 72 b3 3d
       0.002338303 -0.08267589 -0.116388515 0.08762155
000060 42 3a 8a bd 19 f6 0d be 9a 0f 3c 3d d4 3e 92 bd
       -0.06749393 -0.1386341 0.045913316 -0.0714089
000070 60 a5 e5 bc 6c 22 66 3b a3 ce 70 3d 21 99 49 3e
       -0.028032959 0.0035115732 0.058790814 0.1968732
000080 9d 2f b1 bc 6d 10 ea bc 48 1b 5e bd c0 ba 16 3c
       -0.02162915 -0.028572286 -0.054225236 0.009199798
000090 59 e2 8a bd 20 5c f5 3d 7b 1e 48 3e d4 50 b3 3d
       -0.06781454 0.11980462 0.19542877 0.08755651
0000a0 30 9b 1e 3e d6 b2 04 be 47 d0 ba bd 8f 2e c8 bd
       0.15488887 -0.12958845 -0.09121757 -0.09774505
0000b0 02 76 4a bd 89 39 b7 3c e7 da 4c 3d ad 8b a4 bd
       -0.049428947 0.022366302 0.05001345 -0.080344535
0000c0 9e 6f 90 bd 23 59 ea bd d8 83 58 bd 65 a8 e0 bd
       -0.07052539 -0.11442783 -0.05286011 -0.10969619
0000d0 c8 a4 91 3d 98 43 06 be 3b 3b 42 bc e0 36 92 bd
       0.07111508 -0.13111722 -0.011854942 -0.07139373
0000e0 c0 82 ce bc 87 60 57 3c 18 33 bd 3d ab 38 f9 bd
       -0.02520883 0.0131455725 0.09238261 -0.12169012
0000f0 85 cc 63 3e 55 dc 54 3d f3 16 40 3e 96 ef 92 3c
       0.22245987 0.051967937 0.18758754 0.01793651
000100 b0 6a b8 3d 6c 14 c0 bd 84 70 0f bd 1e 3a 8c bd
       0.09004724 -0.09378895 -0.035019413 -0.068470225
000110 eb c6 04 3e 05 c1 9f 3d a4 d7 a7 bd 28 22 00 be
       0.12966506 0.078004874 -0.08195427 -0.1251303
000120 ed eb d8 3c a2 09 5f 3d da 8b 67 bd 0d b0 31 be
       0.026479686 0.054452546 -0.056529857 -0.17352314
000130 01 1e 08 be 46 1b 8c 3d 1d 86 00 3d eb 36 a6 bc
       -0.13292696 0.068411395 0.0313779 -0.020289859
000140 4f 50 fa 3d e5 04 d1 3d 0b db 42 3d c7 96 c6 3d
       0.12222349 0.10206012 0.047572177 0.09696727
000150 27 48 cb bd d4 a3 e6 3d e5 11 e4 bc 26 63 2a be
       -0.09925871 0.112617165 -0.027840564 -0.16639385
000160 a1 4f fd 3b 3b 5f bc 3b 76 39 bc bd d6 f6 05 be
       0.00773044 0.005748657 -0.09190647 -0.13082442
000170 d0 c8 8d bd 84 8b f5 bd 29 5d 12 3e 55 72 23 3e
       -0.069230676 -0.11989501 0.1429335 0.15961583
000180 67 20 68 bd d6 de ac 3d 1f 4a b1 3d 87 28 f6 bd
       -0.056671526 0.0844094 0.086567156 -0.12019449
000190 b9 7c d5 3d 8b 59 15 3e cb 3f 28 be 8f 9e 0c be
       0.104241796 0.14584939 -0.16430585 -0.1373236
0001a0 6c e6 39 3e ac 8f bd bd ea 35 1e be d8 78 1b 3e
       0.18154305 -0.09255919 -0.15450254 0.15182817
0001b0 76 26 78 3c 6f ee 20 3e aa 36 cd 3d 5b 3e 97 bc
       0.015145889 0.15715955 0.10020192 -0.01846235
0001c0 8e 1d 14 3e 4f ab e7 3d 04 43 b9 3d e3 db d6 3d
       0.14464399 0.113119714 0.09045985 0.10491159
0001d0 60 85 0a be d6 91 2c be c5 96 1d 3d db 3d 0d 3e
       -0.13527441 -0.16852507 0.038473863 0.13793127
0001e0 f6 16 9f bb d6 0a a9 bd a5 5d cd 3c 21 4e 16 be
       -0.004855032 -0.0825402 0.025069067 -0.14678241
0001f0 a0 d7 19 3d ed 2f ab bd 34 8f 68 3d 05 24 23 3d
       0.03755915 -0.083587505 0.056777194 0.039829273
000200 e5 64 0b 3e 7d 53 ad 3d 35 7b ce bd 2f 44 30 3d
       0.13612707 0.0846319 -0.100820936 0.043033775
000210 5d 17 b1 bd 93 26 f9 bd 92 a3 ec 3d 20 52 a4 3d
       -0.08647034 -0.121655606 0.11554636 0.080234766
000220 d6 2a 43 3e 7a b1 d7 bd 2b 4f f6 bd 87 57 21 3d
       0.1905931 -0.10531898 -0.12026819 0.039390113
000230 1c e1 9d bd b2 88 85 3d d3 b8 c0 3d 98 47 26 3e
       -0.07708952 0.06520213 0.094102524 0.16238248

Incption2_conv3_1.weight f4 [4, 11, 1, 1]
000000 86 a1 81 bd f8 32 7d 3e 1c 2e e0 3d e8 34 22 be
       -0.06329636 0.24726474 0.10946295 -0.15840495
000010 df 3b da bd 56 bf f4 bd b4 6e 89 be 18 d1 10 3e
       -0.10655951 -0.11950557 -0.26842272 0.14142263
000020 a9 a0 8c bd 9f f0 9a be fe 36 64 bc 84 1b 39 be
       -0.06866581 -0.30261704 -0.013929127 -0.18076903
000030 40 3b 02 be 0e 03 87 be 5e 3f e1 be 7b 2e 46 be
       -0.12717915 -0.26369518 -0.43993658 -0.19353668
000040 15 18 3a 3d 54 b4 4d be b8 08 68 be fb f0 22 3e
       0.045433123 -0.20088321 -0.22659576 0.15912239
000050 45 5c 67 3d 21 4c ad 3d 5a e2 d6 3d b6 ed a0 3d
       0.05648448 0.08461786 0.10492392 0.0785784
000060 66 59 29 be 60 31 3c 3e f0 8a e0 3d 7d 60 dd 3c
       -0.16538009 0.1837821 0.10964 0.027023548
000070 3a 43 8d bd 7d ac 31 3e 8d b6 1a bc 1f e6 96 be
       -0.06897588 0.17350955 -0.009442938 -0.29472443
000080 bd 19 31 3e 97 0e 57 be ae bb 6b be 45 0d 52 3e
       0.17294975 -0.2100166 -0.23020813 0.20512874
000090 8c cd 80 3e 55 c4 8c 3e 90 bb d2 bb 52 b5 79 be
       0.2515682 0.2749354 -0.0064310506 -0.24385574
0000a0 7e 2f 53 be 05 dc 22 bd a1 fd 8f 3e e1 27 54 3c
       -0.20623586 -0.03976061 0.2812319 0.012948961

Incption2_conv3_2.weight f4 [4, 4, 3, 3]
000000 17 e8 08 be d1 15 d4 bd 8d a9 4f 3d 3e 26 83 bc
       -0.13369785 -0.10355724 0.050698806 -0.016009446
000010 01 72 02 3d 27 58 86 3b 78 72 10 3e ac 2a 96 bd
       0.031847004 0.004099864 0.14106166 -0.07332358
000020 bd f2 bf 3d 1d f2 14 3e ac b1 41 be e3 02 99 3d
       0.093724705 0.14545484 -0.18915433 0.07471254
000030 38 55 26 be e5 4d a9 bc f2 aa f3 3c c8 7d 20 3e
       -0.16243446 -0.020667026 0.029744599 0.15672982
000040 6d 29 62 3d 23 9e 25 bd 28 f9 07 3e 21 52 80 3d
       0.055215288 -0.040434014 0.1327864 0.06265665
000050 38 9a 9a ba 95 d3 c7 3d 82 3d bd bd e7 6b b0 bc
       -0.0011795228 0.09757153 -0.09240247 -0.021535827
000060 df 0a 35 3e 65 0f 49 bd 44 fa c9 bd ee 4b 7f be
       0.17679928 -0.049086947 -0.098621875 -0.24931309
000070 16 84 46 bd 28 17 0f 3e da a1 00 3e 0a 87 03 3e
       -0.04846581 0.13973677 0.12561741 0.12844482
000080 fd ad 9f bd 40 2b 2d 3d 0f 93 4e 3d 76 55 ad 3d
       -0.077968575 0.042277575 0.050433215 0.08463566
000090 94 67 59 bd 60 57 8f bd f2 e9 23 bc 6e da be 3d
       -0.053077295 -0.06999087 -0.010004507 0.09319006
0000a0 2b 6d ea 3d 34 f4 e8 bb 35 e7 53 bd bb 86 fc bc
       0.114466034 -0.0071091894 -0.051734168 -0.030825963
0000b0 cd 7d 61 3d eb 84 85 bd 80 e4 f0 bd b3 20 bc 3d
       0.055051614 -0.06519493 -0.11762333 0.091859244
0000c0 dd d4 e9 bd 06 dd e0 3d e8 0c 43 bd 6b d7 e8 3c
       -0.114175536 0.10979657 -0.04761973 0.028423032
0000d0 48 9f 82 3d 54 ee 1f bd 30 67 be 3d b5 1d f1 bd
       0.06378037 -0.039045647 0.09297025 -0.11773244
0000e0 60 24 32 3e 81 3f 30 3e 14 ff c8 bd 58 ef 23 be
       0.17396688 0.17211725 -0.09814277 -0.16009271
0000f0 8d 94 a9 bb 1b 23 ab bc 40 7e 04 be 8c 15 ca bd
       -0.0051751793 -0.020890763 -0.12938786 -0.09867391
000100 68 c8 bc 3d 51 67 88 bb bc 4b fb 3d 24 19 fb bd
       0.09217912 -0.004162707 0.122703046 -0.122606546
000110 63 b3 fe bc 46 c6 23 be 18 af a6 bd 80 67 15 3e
       -0.031091398 -0.15993604 -0.08138865 0.14590263
000120 b3 60 ee bc dd 91 6b 3d 1b c4 1c 3e 99 38 38 3d
       -0.029098844 0.057512153 0.15309183 0.04497585
000130 0e 06 29 3d 7b f2 22 3d 84 f7 59 bd a2 31 05 3e
       0.04126554 0.03978203 -0.053214565 0.13007215
000140 d1 3e fa bd df 08 da bd b1 8a f7 3d d2 17 88 3d
       -0.122190125 -0.10646223 0.12087 0.06645168
000150 96 66 f0 3a 96 b9 bc bc aa 14 d2 3d 18 9c b8 bc
       0.001834112 -0.023037713 0.102578476 -0.022535369
000160 52 5b e3 bd 2b 90 39 be 95 6a 54 3d f1 1e 90 bc
       -0.11101402 -0.18121402 0.051859457 -0.017592879
000170 05 59 25 3d a1 09 c6 bd 1d 54 89 3d 56 42 e8 bd
       0.0403681 -0.09669805 0.067054965 -0.113407776
000180 ea e7 04 be 45 cb 1f 3e ff 22 1d 3e 45 bc e1 bc
       -0.12979093 0.15604885 0.15345381 -0.027555594
000190 88 f5 33 be 04 36 ef bd 94 34 89 3d 69 1e 21 3d
       -0.17574131 -0.116802245 0.066994816 0.039335642
0001a0 dc dd 58 be 2f e1 8c 3d 6c 26 45 3d 3b 92 26 be
       -0.21178383 0.06878888 0.048132345 -0.1626672
0001b0 bf 43 0c 3d c8 bf 10 be 29 d3 3e 3e bb 51 2c be
       0.034244295 -0.14135659 0.18635239 -0.16828053
0001c0 72 16 81 bc 85 f7 06 be 68 42 5c 3b 8d 41 41 3e
       -0.015757773 -0.13180359 0.0033608917 0.18872662
0001d0 99 24 bb bd 32 67 1b 3d 75 a0 e4 bc 79 07 06 be
       -0.0913784 0.03794021 -0.027908543 -0.13088788
0001e0 ca 34 14 3e a0 3e 09 3c 55 b3 1d 3d e8 24 3f be
       0.14473262 0.008376747 0.038501102 -0.18666422
0001f0 f7 b1 15 3e 73 5f c1 3b 05 72 b7 bd bc 37 fb 3d
       0.1461867 0.005901271 -0.089572944 0.1226649
000200 b0 0e db 3b cd 86 34 3d eb 45 8a bd 75 a3 a3 3d
       0.0066851005 0.04407387 -0.06751617 0.07990161
000210 9e d7 1c be 53 aa 30 3e 3b a8 48 3d 72 e0 5d 3d
       -0.15316626 0.17252474 0.048988562 0.054169126
000220 54 95 e0 3c 9b 89 2d 3e 1e ae 92 3d 20 85 82 3d
       0.027414955 0.16947024 0.071621165 0.06373048
000230 9c 51 a8 3c f9 f0 31 3d e7 0a 07 be 54 c5 46 bc
       0.020546727 0.0434427 -0.13187753 -0.012132008

Incption2_conv4_1.weight f4 [2, 11, 1, 1]
000000 14 11 99 be 93 44 39 3e 3e e5 c7 3d b1 75 a7 3d
       -0.29895842 0.18092565 0.09760521 0.08176745
000010 ed 9b 9e 3d 8c 82 c4 3c 63 f7 51 bd 83 2a 2c be
       0.07744584 0.02398803 -0.051261317 -0.16813092
000020 ff 61 dc bc 86 16 55 3e a8 6f 9c 3c 52 ff aa 3e
       -0.026902197 0.20809373 0.01909621 0.3339792
000030 0a df 52 be 81 06 0b be 69 3c 22 3d e3 a5 83 3e
       -0.20592895 -0.135767 0.039608393 0.257125
000040 f2 f3 0a bc 68 f1 31 be 64 5b 61 3e 3d e9 00 be
       -0.008481013 -0.17377245 0.22007519 -0.12588973
000050 a1 43 34 3e 51 35 fa bc
       0.17603923 -0.030543001

Incption2_conv4_2.weight f4 [2, 2, 3, 3]
000000 ae 1f 8d 3c ac b1 38 3e 0f e2 11 be 34 5f 30 3d
       0.01722702 0.18036526 -0.14246391 0.043059543
000010 5e 51 69 3e 46 01 e8 3d fa 4d 6d 3d a1 b2 63 be
       0.22784945 0.11328368 0.057935692 -0.2223611
000020 25 fd 81 be 8d d9 d9 3d 50 35 7f 3e bf dd d9 bc
       -0.25388446 0.10637198 0.24922681 -0.026594995
000030 a5 c1 63 be 12 7f 23 be de 50 1f bd 63 2b d2 3c
       -0.22241838 -0.15966442 -0.03889548 0.025655454
000040 93 4a 06 be 5a 3a 87 3e c4 01 4d be 66 25 47 3e
       -0.13114385 0.26411706 -0.20020205 0.1944786
000050 a0 b1 44 3e d2 f5 84 be ed 2e 38 3e cc e4 1c 3d
       0.19208384 -0.25968796 0.17986651 0.038304135
000060 81 15 0a be 43 b6 23 3d 37 ca 83 bd 7f 4c 4b 3e
       -0.13484766 0.03996874 -0.06435054 0.198534
000070 aa b7 20 3e 0a 14 42 3b 6e 9c 68 3e 58 d5 9a 3c
       0.15695062 0.0029613995 0.22715923 0.018900558
000080 1d 6e 1a be 21 97 16 be 10 b3 8e be f7 e9 10 3e
       -0.15081067 -0.14706089 -0.2787099 0.1415175

Incption2_bn.weight f4 [12]
000000 23 f3 61 3f 2b c3 6e 3f f0 dd 87 3f 5c 0e 71 3f
       0.8826162 0.9326655 1.0614605 0.94162536
000010 10 37 89 3f 56 68 6c 3f b2 ec 81 3f 9c 4b 85 3f
       1.0719929 0.92346704 1.0150359 1.0413699
000020 e1 26 83 3f af 72 80 3f d8 67 80 3f 34 55 88 3f
       1.024624 1.0034999 1.0031691 1.0651002

Incption2_bn.bias f4 [12]
000000 3e 34 06 bd a2 a7 79 3a f8 92 25 be 0c 6e 84 3c
       -0.032764666 0.00095235754 -0.16169345 0.016165756
000010 ca ef b8 bd b1 44 f7 bb 33 5a 9b bd c9 cf 21 be
       -0.09030111 -0.0075460305 -0.075855635 -0.1580192
000020 2d 20 c8 bb 67 5a 81 bd 06 9b 91 bd 2f 20 36 3d
       -0.0061073513 -0.06316071 -0.071096465 0.044464286

Incption2_bn.running_mean f4 [12]
000000 7a fa e7 3d a1 8e b5 3d 21 58 82 3c bc 28 8b bc
       0.113270715 0.08865095 0.015911164 -0.016987197
000010 dc ed 14 bd f9 c4 08 3e 1c b9 57 3c 53 fa 12 38
       -0.036359653 0.13356389 0.013166692 3.5042245e-05
000020 ca 73 02 3d 41 e8 51 3c 07 ed 98 bb 36 3f 12 bc
       0.031848706 0.012811721 -0.0046669277 -0.0089262035

Incption2_bn.running_var f4 [12]
000000 64 b2 27 3e d4 0a aa 3e 2f 66 d2 3c 2e 25 41 3d
       0.16376644 0.33211386 0.02568349 0.047154598
000010 00 5b 67 3d 4e c0 ac 3d 30 ac 40 3d 9e 30 e6 3c
       0.05648327 0.08435117 0.04703921 0.028099354
000020 ad 00 84 3d 3d 51 0a 3d 1a 01 71 3c 81 a1 f0 3c
       0.064454414 0.03376888 0.014709735 0.029373886

conv1.weight f4 [16, 12, 5, 5]
000000 e0 a1 31 3c 79 b1 d0 bc f6 9b c7 bc 9d a1 2d 3d
       0.010841817 -0.02547525 -0.02436636 0.042390455
000010 cc 00 94 bd 3a 54 80 bd 1f c8 eb 3c c9 c7 82 bd
       -0.072267145 -0.06266065 0.028781949 -0.06385762
000020 65 28 22 3c 56 27 9b bd ad fb 05 3d ff 03 b3 3b
       0.009897326 -0.07575862 0.03271072 0.005463123
000030 29 d9 33 bd e7 19 4b bd 93 69 38 bd 8e a3 98 bd
       -0.043908272 -0.04958525 -0.04502256 -0.074530706
000040 41 9d 42 bc 04 6a e5 bb ac 28 3c bd e3 d1 2b bd
       -0.011878313 -0.0070011634 -0.045937225 -0.04194821
000050 e9 3a 92 bc 3b 7d 2f 3d 81 b1 6a bd 3f 24 3c bd
       -0.017850356 0.04284404 -0.057298187 -0.045933004
000060 59 3e 0c 3d 27 46 c2 bc d7 52 2b bd c4 b3 51 bd
       0.034239147 -0.023715092 -0.04182705 -0.05119683
000070 12 0e 6b 3d 08 6c 5e 3d 67 67 66 bd b3 60 dc 3c
       0.057386465 0.054302245 -0.056250956 0.026901579
000080 19 5e 56 bd 2c 2c e8 bb 02 09 1e 3d 3e ca c8 3c
       -0.052335832 -0.007085344 0.03858281 0.0245105
000090 d8 1a 3d 3d af 21 12 3d ba 46 8e 3c bb e8 7b 3d
       0.04616818 0.035676654 0.01736771 0.061501246
0000a0 fc 6c e8 3c 0f d9 50 3d d5 da 80 3d 68 dc 00 bd
       0.02837228 0.050988253 0.06291739 -0.031460196
0000b0 c4 33 99 3c 1d bf 4d bd eb 7c 0c 3d 3a 26 95 3c
       0.018701442 -0.050231088 0.03429882 0.018206704
0000c0 87 53 8c 3b d6 f0 98 3d b3 dd 88 3a 2e 6e 50 3d
       0.004282418 0.07467811 0.0010442048 0.050886326
0000d0 9a 22 6e 3c e0 21 bc 3b 3b d1 66 bd e3 92 cb 3c
       0.014534617 0.005741343 -0.05635188 0.024850314
0000e0 26 2a 53 3d 2d 06 fc 3c ac 8b b2 bc c2 27 20 3d
       0.051553868 0.030764664 -0.021795116 0.039100416
0000f0 f8 9b 63 3c 00 96 2d bc 38 00 04 bb 1e 76 d0 3c
       0.013892166 -0.010594845 -0.0020141732 0.025446948
000100 c3 65 47 3c 96 4e a9 bd 2b 79 73 3d ea 9b ee 3d
       0.012170258 -0.08266942 0.059441727 0.11650832
000110 1e 06 c4 3d b8 b2 2e bc 8d 65 4c 3c 65 dd 12 3d
       0.09571479 -0.010662727 0.0124753835 0.03585567
000120 0c 60 84 3d 23 ef 09 bd fd 72 4e 3b de 30 67 3d
       0.06463632 -0.033675324 0.0031501644 0.056443088
000130 18 84 93 3d b9 a6 bc ba b1 48 10 3d 5b 80 4d 3d
       0.07202929 -0.0014392949 0.035225574 0.050171237
000140 16 10 f3 3c 91 95 a0 bc 4b e3 47 bc 9a c0 35 3d
       0.029670756 -0.019602569 -0.012200187 0.044373132
000150 b6 4b 8a 3d 46 28 1d 3d ad f9 43 3c 89 f5 ef 3d
       0.06752722 0.038368486 0.011961383 0.11716754
000160 fd 95 ee 3c 9b 6a de 3c 4c 93 ef 3c ce a2 b7 3d
       0.029124254 0.027150443 0.029245041 0.089665994
000170 97 d2 49 3d 54 9f 34 3d e9 58 d8 3d 77 6e c2 3c
       0.0492731 0.04409726 0.10563833 0.023734314
000180 b9 45 18 3d 64 b8 c9 3c 23 87 90 3d 7a 9e be 3d
       0.037175868 0.024624057 0.07057025 0.09307571
000190 61 4e 9f bd 3a 09 1b b9 48 6f 1c 3c d1 48 7c bd
       -0.077786215 -0.00014785389 0.009548016 -0.06159288
0001a0 0d 73 1b bd 21 9c 81 bd 89 fe a5 bd 81 8a ae bd
       -0.037951518 -0.06328607 -0.08105189 -0.08522511
0001b0 13 59 aa bd 84 42 dc bd fa 30 23 bc 31 16 c4 bd
       -0.08317771 -0.10754874 -0.009960407 -0.09574545
0001c0 5c 3b bb 3c 35 60 1e bd 87 b5 17 bd df 16 c0 bd
       0.022855453 -0.03866597 -0.037038352 -0.09379362
0001d0 4e 58 aa bd e8 c1 b9 bd c9 f0 c0 bd 64 04 5b bd
       -0.08317624 -0.09070188 -0.09420926 -0.053470984
0001e0 51 98 ce bc 15 b3 9e bd e0 08 13 bd f6 27 a5 bc
       -0.025219114 -0.07749001 -0.035897136 -0.020160656
0001f0 80 7c 71 bc 8e f1 6e bd 6c 10 43 3c b6 f6 30 bd
       -0.014739156 -0.058335833 0.011905771 -0.043204032
000200 81 59 db bc 0b 3d f5 3c 3d ac 98 bd 42 cf 80 bd
       -0.026776077 0.029936334 -0.07454727 -0.06289531
000210 96 05 8e 3c 16 c6 42 3c 00 33 88 bd e4 8e e4 bc
       0.017336648 0.011888048 -0.066503525 -0.027900167
000220 86 74 bb bd ea b6 69 3b 0c fa 12 3d 28 5f e4 3c
       -0.091530845 0.0035662004 0.035882995 0.027877405
000230 fd 0f 1d bd e4 25 98 bb 2f 06 44 bd 63 10 01 bc
       -0.038345326 -0.004643189 -0.04785746 -0.007877442
000240 69 4b a5 bc d1 7a 9f 3c 04 e8 6a bd cf c8 b8 b9
       -0.02017756 0.019467743 -0.057350174 -0.0003524483
000250 da e1 b7 bc 80 5e 88 bc 1c 5f be 3c 51 41 20 3d
       -0.022446562 -0.016646624 0.023238711 0.03912479
000260 c2 49 ec bc ae 59 01 bd 96 27 85 3d b5 91 66 3d
       -0.028843764 -0.031579666 0.06501691 0.0562913
000270 c0 d1 7a bb e6 09 16 3d bc 17 1b 3c 1d 1f 58 3d
       -0.0038271993 0.036630534 0.009466108 0.052764047
000280 06 20 9b bd 43 68 a9 bd 74 96 00 3d 00 85 3c 3d
       -0.07574467 -0.082718395 0.031393483 0.046025276
000290 fa d8 85 3d d0 c1 f5 3b 4d 0b 2e 3d e6 bf d5 3a
       0.065355256 0.007499911 0.042491246 0.00163078
0002a0 7c 90 da 3c 6e 92 a1 bc 43 9d 5d bb aa dd 29 3c
       0.026680224 -0.019723143 -0.003381566 0.01036779
0002b0 a0 37 b9 bc 3f 9c 10 3d cc f8 89 3d 29 ca b3 3d
       -0.022609532 0.035305258 0.06736907 0.08778793
0002c0 d9 74 29 3d fc 68 70 3d 94 47 5d 3d e3 15 be bc
       0.0413712 0.05869387 0.05402334 -0.023203796
0002d0 0b 52 90 3d d9 3d 1f 3d 68 1d 33 3d de fa d7 3c
       0.070468985 0.038877342 0.043729216 0.02636474
0002e0 b8 cb 53 bc d9 0a de 3d 0c 42 26 bc 1c 91 4d bd
       -0.012926988 0.10841913 -0.010147583 -0.050187215
0002f0 e4 82 88 ba 82 7f 34 3c d0 a7 15 bd 71 62 74 3d
       -0.0010414985 0.011016728 -0.03653699 0.059664194
000300 d4 75 a1 3d 90 5a 88 3c 1d 86 26 3d a2 3d d8 3d
       0.07883802 0.016644746 0.040655244 0.105586305
000310 a0 09 03 3e 23 71 76 3d f1 78 6e bd 79 97 3a bd
       0.1279664 0.06016649 -0.058220807 -0.04555461
000320 fa bf 8f bd 05 1e 9b bd 23 3d cb bd 91 28 ce bc
       -0.070190385 -0.07574085 -0.0992377 -0.025165828
000330 c4 31 6c bd e5 dd 9b bd 19 35 6b bd 4a 78 8a bc
       -0.057664648 -0.076106824 -0.057423685 -0.016903061
000340 e3 53 b4 bd 0c b6 2c bd fe ce 6b bd 85 d7 44 bd
       -0.088050626 -0.0421658 -0.05757045 -0.048057098
000350 dc 27 86 bd ee 1a 79 bd e8 ac 86 bd 8a 7f 80 bc
       -0.06550571 -0.060816698 -0.06575948 -0.015685815
000360 92 f1 81 3c 4a a3 8b bc 4a 16 df bc c2 2d 4e 3d
       0.01586226 -0.017045636 -0.027232308 0.050336607
000370 ec 62 99 bd dd 74 4e bd f2 cf cf 3c 77 10 66 bd
       -0.07489571 -0.05040442 0.02536771 -0.056168046
000380 ce cb 0b bd 00 d9 76 3d ea ac d5 3c e5 b5 6e bc
       -0.03412991 0.06026554 0.026083428 -0.014569734
000390 d5 e2 d0 bc 0b 30 84 bd ff dd 16 bd 87 ae bc 3c
       -0.025498787 -0.06454476 -0.036832806 0.02303244
0003a0 fe a2 73 bd 69 a0 5f 3c 72 96 05 3d fb 93 fc bc
       -0.059481613 0.013649085 0.03261418 -0.030832281
0003b0 6c 57 d3 bc ac 38 27 bc d0 4c 1f bc f7 84 c4 3c
       -0.025798522 -0.010206383 -0.009722903 0.023989184
0003c0 50 13 80 bd ed e4 66 b9 72 b5 4f bc 4f 2b 6f bd
       -0.062536836 -0.00022019791 -0.012677537 -0.05839091
0003d0 ad 96 35 bb 9d 61 12 3d 8e d9 48 3d 2e be 1e bd
       -0.0027708218 0.035737623 0.0490356 -0.03875559
0003e0 2c 71 27 3d 77 04 03 bd c4 c1 2f bd 66 68 bf 3c
       0.040879413 -0.03198668 -0.0429094 0.02336521
0003f0 cb 03 ae bd be ea 9d bd a6 a5 5a bc 7c e5 80 bc
       -0.08496817 -0.07710789 -0.013345158 -0.015734427

bn1.weight f4 [16]
000000 7c 66 72 3f 3d 80 72 3f 89 98 85 3f 10 17 64 3f
       0.9468763 0.94726926 1.0437175 0.8909769
000010 c4 76 84 3f ef 3e 7c 3f 55 31 7b 3f a0 b3 7b 3f
       1.0348744 0.9853353 0.9812215 0.9832096
000020 aa 8a 68 3f d9 a4 78 3f 09 f2 77 3f 20 16 77 3f
       0.90836585 0.9712654 0.9685369 0.96518135
000030 7e 08 6b 3f 22 8b 75 3f a8 c4 6a 3f 9c a5 6f 3f
       0.91809833 0.95915425 0.91706324 0.93612075

bn1.bias f4 [16]
000000 bf 76 43 be 64 52 d6 bd ba a6 8b 3c 5f f5 b4 3d
       -0.19088267 -0.104649335 0.017047275 0.08835863
000010 ee 7e 07 bd e4 a5 db bd 9e 89 16 bd 65 82 d2 3d
       -0.033080034 -0.107250005 -0.036752336 0.10278777
000020 fc 9b 81 bd 71 d8 89 3b 8a 41 08 be d0 76 b2 bd
       -0.0632858 0.00420671 -0.13306251 -0.08714068
000030 53 67 82 3d 97 40 b8 be 69 fb c8 bd c1 90 4b 3d
       0.06367364 -0.35986778 -0.09813578 0.049698595

bn1.running_mean f4 [16]
000000 2e 9e 99 3e 4f e4 44 3e 72 af 89 3e 3c 96 e2 3e
       0.30003494 0.19227718 0.26891667 0.44255245
000010 9b 26 41 3e 78 65 7e 3e 02 be 14 3f 1d 76 11 3f
       0.18862383 0.24843395 0.5810243 0.5682085
000020 f4 19 d1 3e 8c 72 5f 3e 5e 97 3b 3f fb 9f 81 3e
       0.40840113 0.2182104 0.73277843 0.25317368
000030 fd 6d 0c 3f 47 d2 95 3e 3b 5b 94 3e f9 d7 be 3e
       0.5485533 0.2926199 0.28975853 0.3727415

bn1.running_var f4 [16]
000000 e2 a8 c3 3e 78 e8 63 3e 58 5f d8 3e 75 66 1e 3f
       0.38214785 0.22256649 0.42260242 0.6187509
000010 c9 0e 6d 3e e3 66 9a 3e a5 62 93 3f cc c0 69 3f
       0.23150171 0.3015662 1.1514479 0.9130981
000020 8a 07 5c 3f 35 db 86 3e f8 bb ce 3f 4b a3 ab 3e
       0.85949004 0.26339117 1.6151114 0.3352302
000030 c2 f6 69 3f 71 5c c1 3e 35 85 0b 3f cf f9 2e 3f
       0.9139215 0.3776584 0.5450013 0.6834993

conv2.weight f4 [16, 16, 5, 5]
000000 a1 51 1c 3c cc 18 dd 3c e6 66 f0 3c 2d 89 31 3d
       0.009540946 0.026989363 0.02934594 0.04334371
000010 ff 44 2b 3d 79 6d 55 3d e2 63 45 3d 96 59 02 3d
       0.041813847 0.052106354 0.04819096 0.031823717
000020 f3 19 5b bc dc 9b 11 bd 84 6a 31 3a 9c 7a ee 3c
       -0.013372886 -0.03554903 0.0006767886 0.0291112
000030 ee 0b 8e 3d 0a 4e 87 3d 7e d2 18 3d 64 67 72 3c
       0.06935869 0.06606682 0.037310116 0.014795158
000040 a1 e4 93 3d aa c9 28 3d 65 23 60 3d 58 d3 0d bd
       0.07221342 0.041207947 0.054721255 -0.03462538
000050 76 4d 23 3d 73 9c 98 3c 6b 1d 8a bd 69 9d 24 bd
       0.039868794 0.018629288 -0.06743892 -0.04018918
000060 14 7a 6d bc ae bb ad bc 19 6e 3f 3a a0 37 4e bc
       -0.014494438 -0.021207657 0.00073024776 -0.012586504
000070 a2 0d 32 bd 8e 26 ed bc 91 79 07 3d 6a 1f 2e bb
       -0.043470033 -0.028949048 0.03307492 -0.0026569017
000080 21 d9 01 3d b1 8c 71 3d 95 c8 a3 3c a6 34 a4 3c
       0.03170121 0.058972064 0.019993106 0.020044636
000090 47 b9 f1 3c 39 99 0e bc 74 56 e3 bc 4d ce 50 bc
       0.029507292 -0.008703523 -0.027751185 -0.012744498
0000a0 bd 30 2c 3c a8 9f a8 bc cc 73 02 bd d2 42 3d bd
       0.010509667 -0.020583943 -0.031848714 -0.046206303
0000b0 34 9a d5 3c 0b 21 47 3b e9 c1 5d bb f4 50 d5 bc
       0.026074506 0.0030384685 -0.0033837503 -0.026039578
0000c0 2e 56 33 3b dc 47 a4 b9 3a 21 9d bd df d4 a2 bd
       0.00273646 -0.00031334057 -0.07672353 -0.07950758
0000d0 4d ef 63 bd 14 ec 18 bd 78 1d ae bd 65 dc d0 bd
       -0.055648137 -0.037334517 -0.085017145 -0.10198287
0000e0 0a 5f d1 bd 4f 0e f7 bc 57 1b ed b8 b6 65 35 bd
       -0.102232054 -0.03015819 -0.00011306133 -0.044286452
0000f0 3b fb d9 bd 58 d4 08 be 53 b6 c8 bd 70 2f 51 bd
       -0.106436215 -0.13362253 -0.098004006 -0.05107063
000100 a2 ea 6d bc 29 02 ad bd 1c 72 92 bd 29 f7 20 bd
       -0.014521273 -0.08447678 -0.07150671 -0.03929821
000110 04 a5 a2 b7 3d 2c 23 bc fd b5 27 bd 2f 86 c6 bc
       -1.9388746e-05 -0.009959278 -0.040945042 -0.024233906
000120 1e 0b 15 bd fe 55 1d bd 8a f2 38 3d 53 08 a6 bc
       -0.036387555 -0.038412087 0.04515318 -0.020267641
000130 02 4d 4b bd 5f c7 a2 bc 89 a8 49 3d a0 b2 e8 bc
       -0.049633987 -0.019870458 0.049232993 -0.028405488
000140 db 0e 97 3c 36 92 fc bc e7 d4 4d bb 2e 53 35 bb
       0.0184397 -0.030831438 -0.0031407417 -0.0027667987
000150 32 0d e8 3c 64 63 e5 3c 63 f2 c0 3c 79 11 87 bc
       0.028326605 0.028001495 0.023553079 -0.016487824
000160 6c 4a 11 3d 21 63 0b 3d 9d 0c 47 3b 20 a9 86 bd
       0.035471365 0.034030084 0.0030372508 -0.06575227
000170 3e 01 1f bc 94 b3 cf 3c 87 a7 45 bd 9f be d1 3c
       -0.009704886 0.025354184 -0.04825547 0.02560359
000180 70 c8 e8 bc 1a e6 0c 3d a1 fb 99 3d d3 c4 c8 3d
       -0.028415889 0.03439913 0.075186975 0.09803166
000190 0f e1 13 bc e2 bb 83 3c fc 32 aa 3c be 5d ba 3c
       -0.009025826 0.0160808 0.020776264 0.022749778
0001a0 4e da 66 bc f4 27 75 3c ec fa b9 3c 46 52 95 3d
       -0.014090134 0.014963139 0.022702657 0.07291083
0001b0 dc b7 d8 bc be f8 3f 3d e9 3b 86 3d f6 d4 d4 bb
       -0.026454858 0.04686808 0.06554396 -0.0064951135
0001c0 c6 b9 0e 3d 5d c8 22 3c 59 a8 85 3d 72 9b ca 3d
       0.034845136 0.009935466 0.065262504 0.0989293
0001d0 79 f8 20 3d a8 7a f4 3c 85 7d cc 3c 52 54 23 3b
       0.039299462 0.029843643 0.024962196 0.0024922085
0001e0 04 55 65 3c d2 f9 07 3d 07 3d 41 3d a0 2a aa 3d
       0.01399732 0.03319723 0.04717734 0.08308911
0001f0 f8 4c 09 3d a7 71 56 bd 95 54 86 bd 67 9a 9c bc
       0.03352067 -0.05235448 -0.065591015 -0.019116594
000200 80 74 84 bd ce d5 13 3c ea d8 46 3b 2f 5d 96 bd
       -0.06467533 0.009023143 0.0030341693 -0.07341992
000210 ef a7 35 bd 90 07 12 3c 59 d5 07 3d 9f 19 83 bb
       -0.044349607 0.008912936 0.03316245 -0.004000857
000220 48 0c 29 bc af ed f6 bc de b6 16 3d da e9 61 3d
       -0.0103178695 -0.030142633 0.03679549 0.05515466
000230 c1 b9 c3 b9 77 1f d6 bc 0c f2 1e bd 4b dd 14 bd
       -0.00037331696 -0.02613805 -0.038805053 -0.036343854
000240 b3 9e 96 3b 6f 63 23 bd 37 97 92 3c 30 93 4d 3d
       0.004596555 -0.03988975 0.01789437 0.050189197
000250 71 e5 8f 3d 14 c6 23 3d 7b fe 77 3d 2f b2 31 bc
       0.07026184 0.039983824 0.060545426 -0.010845705
000260 4a ed 34 bb de f5 d3 bc 00 1a 9b bc 14 1d 98 3c
       -0.0027607256 -0.025874075 -0.018933296 0.018568553
000270 3e 42 7f bc fc 3d 98 3c 10 93 c6 3c 4e 3e 0c bd
       -0.015579758 0.018584244 0.024240047 -0.034239106
000280 d3 36 e3 3a c9 28 7f bc 4c d2 f6 3c 93 f3 d6 ba
       0.0017335064 -0.015573689 0.030129574 -0.0016399495
000290 ab 68 1d 3c 7a c9 b2 3c 7d ff 81 ba 37 cb 97 bd
       0.009607474 0.021824587 -0.000991806 -0.07411807
0002a0 c9 a6 8b bd c4 7b 78 bd ee 4f 49 3d 5d 59 70 bc
       -0.06818921 -0.060664907 0.049148493 -0.014669743
0002b0 32 d3 7d bd ea 0d 49 bd 21 8f 24 bc a7 e2 09 bd
       -0.06196899 -0.049085535 -0.01004389 -0.03366342
0002c0 22 df 29 bd bf 09 ad bd 40 58 e6 bb f8 9c 32 3d
       -0.04147256 -0.084491245 -0.007029563 0.04360673
0002d0 63 e7 84 bd 2a 61 f0 bd 09 bd ca bd ff 66 5b bd
       -0.06489446 -0.117372826 -0.09899337 -0.05356502
0002e0 5f 77 03 3d 55 bc a3 bb c0 0a 61 bd 74 5a 81 bd
       0.032096263 -0.004996816 -0.054941893 -0.06316081
0002f0 50 e2 e0 bc ff df b6 bc 93 14 01 be 9f 61 d7 bd
       -0.027451664 -0.022323607 -0.12605505 -0.105166666
000300 2e a8 05 be 6b c7 7e bd 68 c8 01 bd 48 9f bb bd
       -0.13052437 -0.0622019 -0.031685263 -0.0916124
000310 69 53 90 bd 25 f8 17 be b2 67 c4 bd d3 6c 06 3d
       -0.07047159 -0.14840753 -0.09590091 0.032818627
000320 b9 67 8a bd 63 2e 91 bd a6 95 69 bc ff c3 d1 bb
       -0.06758065 -0.07088926 -0.01425687 -0.0064015384
000330 8f 4f 98 3d 5c 85 a3 3b 56 c2 1f bd ed ee f5 bc
       0.074370496 0.004990263 -0.039003693 -0.030021155
000340 68 88 07 bc 2d 9d e4 3c 80 d7 43 3d d3 66 49 bd
       -0.008272268 0.027906979 0.04781294 -0.049170326
000350 67 00 a9 bc 2e d3 4f bd 37 27 a3 3d 69 b4 8b bd
       -0.020630075 -0.050738506 0.07966464 -0.0682152
000360 c1 b0 e1 3c 71 35 5f 3c 5a 1d 66 3d c1 91 53 3d
       0.027550103 0.013623581 0.056180336 0.051652674
000370 45 cf 2a bd 46 69 10 bd d4 e8 8a bc e8 1e 52 3d
       -0.041701574 -0.035256647 -0.016956724 0.051299006
000380 58 68 b5 3d c7 52 ce bc 3b 1a d2 bd d1 05 9a bd
       0.088577926 -0.025185956 -0.10258909 -0.07520641
000390 12 38 0b be 97 b6 c6 bd 15 c6 4b bd 59 8e ba bd
       -0.13595608 -0.09702795 -0.049749453 -0.09109182
0003a0 5e bd 1f be 21 ac fd bd a7 d4 09 be d5 fb e6 bc
       -0.15599582 -0.123863466 -0.13460027 -0.028196255
0003b0 62 fa 2c bd d8 5b b7 bd ec a5 a3 bd 04 16 05 bd
       -0.04223097 -0.08953065 -0.079906315 -0.0324917
0003c0 41 1c cc bc 88 cc 96 bc c8 ec 8b bd bd ac 52 3c
       -0.024915816 -0.018408075 -0.06832272 0.012858567
0003d0 31 15 94 bc 22 22 f3 3a c1 dd 1b 3d dd 89 d0 3b
       -0.018076511 0.0018549601 0.038053278 0.006364091
0003e0 8d 35 08 bb b0 71 73 bd 39 06 ce 3d ec be d8 3c
       -0.0020783872 -0.059434593 0.10059781 0.026458226
0003f0 d8 47 33 3d 7a 43 32 3b 2c 5c 58 3d fd ef 6f 3c
       0.043769687 0.0027200864 0.052822277 0.01464462

fc1.weight f4 [16, 1024]
000000 f4 d2 ea 3c 73 2b 25 bd 34 8a 40 3d 0e e3 1d bd
       0.028665043 -0.04032464 0.0470068 -0.038546614
000010 69 f7 f1 3b 3d 9e bd bc 07 f5 05 bd 0d ea 31 bd
       0.00738423 -0.023146743 -0.03270438 -0.0434361
000020 0c 6a d8 3b b6 a4 97 3b 74 65 85 bd 3d 04 55 bd
       0.0066044386 0.0046277894 -0.06513491 -0.052005995
000030 cf 67 2d bc c1 c7 3c bd d9 eb 98 bc 4a 95 5c 3c
       -0.010583832 -0.046088938 -0.018667148 0.013463328
000040 9a 74 e8 bc 7e c2 07 bb cf ce be bc 3d e5 40 3d
       -0.028375912 -0.0020715292 -0.023291973 0.04709362
000050 d0 4c a4 3d c8 b9 6b 3d 0f cb 62 3d 14 09 a9 bb
       0.08022463 0.05755022 0.055369433 -0.005158553
000060 c3 63 cc 3c 67 6e d8 3b 97 61 f2 bc 86 a6 81 3d
       0.024949914 0.006604958 -0.02958755 0.0633059
000070 09 6e c1 3d 47 6f 6c 3c 5d e8 c8 3c bf 89 82 bc
       0.09444816 0.014430827 0.024524862 -0.015934823
000080 79 ab 87 3c a6 b4 dc bc fe 36 7b bc a5 cd fd 3d
       0.016561257 -0.026941609 -0.015332935 0.12392739
000090 9f c8 d6 3d 18 34 e3 3d 25 3a aa 3b 59 c7 8d bc
       0.10487484 0.110939205 0.0051949196 -0.01730697
0000a0 6c d3 c9 bc ee d5 07 3d 42 75 18 bd 6f ce 87 3d
       -0.024636947 0.033163004 -0.0372212 0.06631171
0000b0 73 eb 5b 3d a1 d8 c7 3c 60 5a 38 bd 84 90 6c bd
       0.05369134 0.024395289 -0.045008063 -0.05775501
0000c0 5b f4 65 3b 18 b9 0f bd f4 1d 47 bc c0 f9 6c 3d
       0.0035088274 -0.03508863 -0.0121531375 0.057855368
0000d0 6f cc c9 3c ac 22 42 ba a8 2c 35 bc 2b fa d8 bc
       0.024633614 -0.0007405679 -0.01105801 -0.026486477
0000e0 a3 61 91 3b 9c f0 f8 bc 16 7e 16 bd e1 10 ad 3c
       0.004436688 -0.030388169 -0.03674134 0.021126213
0000f0 15 38 3e bd f5 47 49 bc be 34 a9 bc b0 ae a1 3c
       -0.046440203 -0.012285222 -0.020655032 0.019736618
000100 d8 26 8f bc 45 bf a7 bd 12 ea 18 bd 4c fc 9d bd
       -0.017474577 -0.08190779 -0.0373326 -0.077141374
000110 b9 62 5d bd 83 09 c7 bd d7 91 69 bd 3b e6 ab bd
       -0.054049227 -0.09718611 -0.05702385 -0.08393522
000120 f7 0c 27 3a 2f b2 f5 3c 43 01 8a bd 41 91 ae bd
       0.00063724763 0.029992191 -0.06738522 -0.08523799
000130 0d 35 06 bd db 6c 08 be 04 74 bd bd 13 bd 31 bc
       -0.032765437 -0.13322775 -0.09250644 -0.010848301
000140 74 c1 7a 3b 37 66 c1 bc d3 52 9c bd f9 a9 8d bb
       0.003826228 -0.02360831 -0.07632985 -0.004323241
000150 df ef 59 bd ff 44 1c bd df f1 3a 3c 13 b9 23 bc
       -0.053207275 -0.038151737 0.011410206 -0.009992856
000160 45 72 e4 bb fb fa de bc ee 15 a1 bd 8c fd da bd
       -0.00697163 -0.027219286 -0.07865511 -0.106928915
000170 bd 11 0f be d2 db a4 bd 33 96 96 bd 25 08 ee bc
       -0.1397161 -0.0804974 -0.07352867 -0.029056618
000180 e6 70 a3 bc de 11 18 bd 78 c9 2b bd 5a 7b 83 bd
       -0.019951295 -0.037126414 -0.041940182 -0.06420012
000190 be ff 23 bd 32 d9 0a bb 7e 3b 90 bd b4 c6 ee bc
       -0.040038817 -0.0021186587 -0.07042597 -0.029147483
0001a0 24 c6 6e bc 35 da 35 bd 80 68 09 bd e5 d3 d3 bc
       -0.014573608 -0.04439755 -0.033546925 -0.025857875
0001b0 50 7b 09 be 7b a4 df 3b d6 f4 ba 3c f7 29 b9 bd
       -0.13425946 0.0068250275 0.022821825 -0.09041207
0001c0 04 dd 2f 3c 4d f3 67 bd e2 b2 8e bd 6c 7d ce 3c
       0.010733847 -0.056628514 -0.06967713 0.02520629
0001d0 56 3e 34 bd 2a c2 62 bd fe 5b 7c ba fa c3 d0 bc
       -0.04400476 -0.05536095 -0.0009626745 -0.025484074
0001e0 39 78 ea bc bf 2c e0 3c 48 dd c5 3b b0 77 6d 3d
       -0.02862178 0.027365087 0.0060383417 0.05797547
0001f0 fb a5 e6 bb ff 25 87 bd dd fc e0 bd 83 e8 c8 bd
       -0.0070388294 -0.06599044 -0.1098573 -0.09809973
000200 c3 52 fa 3c a9 63 ab 3b b8 2b 21 3d 56 e7 17 bd
       0.030557042 0.0052303863 0.039348334 -0.037085854
000210 94 39 45 bd 7c a3 e6 bc 71 71 01 bd d7 20 5c bd
       -0.048150614 -0.028154127 -0.031602327 -0.053742256
000220 d7 6d e2 3d 4a e8 1d 3c 22 3f b9 3b 69 42 f3 bc
       0.110561065 0.009637902 0.005653278 -0.029694753
000230 e1 54 73 bd 7a 9c 62 bd 09 95 32 bd a3 a8 55 bc
       -0.05940712 -0.05532501 -0.043599162 -0.013040694
000240 f4 1e 74 3b 92 74 c0 bc ed 6a db bd e1 91 90 bd
       0.0037249895 -0.023493085 -0.10713754 -0.07059074
000250 7b df db bb 92 9f 4d bd c9 45 9d bd 97 fa b0 bb
       -0.0067099906 -0.050201006 -0.07679326 -0.0054009664
000260 0a 1f 37 bd 93 40 02 3c 19 d2 db bd c8 d1 99 bd
       -0.044707336 0.007949966 -0.10733432 -0.07510716
000270 89 80 9a bd e7 87 76 bd ad 20 78 3b f6 26 2f bd
       -0.075440474 -0.0601882 0.0037861273 -0.042761765
000280 e8 44 b5 bd 80 25 33 bd 90 6d b0 bc 31 d6 f0 bd
       -0.088510334 -0.043736935 -0.021536618 -0.11759604
000290 a6 db d3 bd 4a 14 1b 3a 8c 9a a1 3c 29 59 7e bd
       -0.10344629 0.0005915804 0.019727014 -0.06209675
0002a0 6b 42 43 bd b0 b6 2b bc c7 11 a4 3c 5e a1 0f be
       -0.047670763 -0.010480568 0.020028008 -0.140264
0002b0 e7 4e d0 bc e7 ec 91 bd 79 dd 91 3d e0 e6 1e bd
       -0.025428249 -0.07125264 0.07122321 -0.0387944
0002c0 76 e4 17 3d 58 6e 97 3c 46 28 a1 bc 76 d9 94 3c
       0.03708311 0.018485233 -0.019672524 0.0181701
0002d0 c5 fc 10 3d 69 d5 1a bc ac 35 aa bd 5e 11 b4 bd
       0.03539731 -0.009450295 -0.08311018 -0.08792375
0002e0 b2 12 05 ba b4 51 f2 bc c2 22 84 3d 8c f5 4c 3d
       -0.0005076333 -0.029579975 0.06451942 0.05003886
0002f0 4f a2 99 3d 89 c9 1a bd 2c ec bd bd 68 20 19 bd
       0.07501661 -0.037789855 -0.09273562 -0.03738442
000300 89 fb b0 bc 6a ad 49 bc 7e 43 f3 3d 54 aa 55 bb
       -0.021604316 -0.012309412 0.118781075 -0.0032602744
000310 4a 76 79 3c 38 c3 e5 3c 12 9d 1b 3d c2 b3 0c bd
       0.015225956 0.02804719 0.03799159 -0.034351118
000320 ca 39 82 3d 47 62 e9 bc 13 87 16 3d f9 ee 12 bd
       0.06358679 -0.028489245 0.03674991 -0.035872433
000330 37 50 4f bd 87 da ea bb be e5 ed bb 33 35 35 bd
       -0.05061361 -0.007167164 -0.0072600534 -0.044240188
000340 21 76 21 bc 48 5a b6 bd 59 52 42 bc 64 71 80 bc
       -0.009854824 -0.089039385 -0.0118604535 -0.015679069
000350 d1 5d 3d bd 62 b1 df bb b4 81 b7 3d cd a2 be 3c
       -0.04623205 -0.0068265656 0.08960286 0.023270989
000360 1f 25 da bc 0f 42 68 3d e6 0d d3 3c ff 54 5e bd
       -0.026629029 0.056703623 0.025763463 -0.054280277
000370 7d ff 67 bd 9f 95 95 bc 45 e5 c7 bb c8 73 99 3d
       -0.056640137 -0.018259821 -0.006100329 0.07492787
000380 22 cd dd 3d aa d3 cb bc 65 2b 13 3c 5b f3 81 bd
       0.108301416 -0.024881203 0.008982514 -0.063452445
000390 bf 47 9d 39 cf eb 05 bd cd 23 00 bc ca 7c 93 bc
       0.00029998829 -0.032695588 -0.007821036 -0.01800384
0003a0 ae e4 0d 3d 11 36 86 3d 30 51 89 3d 9e ec 5e bd
       0.034641914 0.06553281 0.067049384 -0.054424874
0003b0 7a ff c8 3b 27 c0 09 3c ee f1 1d bd 40 92 31 3d
       0.006133971 0.008407629 -0.0385608 0.043352365
0003c0 34 b0 65 3d 4b 7f 60 3d 82 e3 1a 3d aa 68 c7 3c
       0.056076244 0.054808896 0.037814625 0.0243419
0003d0 17 81 f1 3c 97 3e 1c bd ae 44 fd 3b 38 72 fd 3a
       0.0294805 -0.038145628 0.0077291345 0.0019336408
0003e0 4e 19 86 3d ea de bf 3c 9c f9 96 3c 17 b1 9b 3b
       0.06547795 0.023421723 0.01842957 0.0047513354
0003f0 56 a8 90 bc 1a 78 3b bc 12 19 c8 bc f9 14 e9 bc
       -0.017658394 -0.011442209 -0.024426017 -0.028452383

fc1.bias f4 [16]
000000 d5 45 28 3d 5b 14 1f bd 7b e2 ba bb fe 69 59 bd
       0.041082222 -0.038837772 -0.005703268 -0.053079598
000010 f2 34 94 bc 30 f5 37 3d b5 27 4e bd 33 60 84 bd
       -0.018091653 0.044911563 -0.050330836 -0.06463661
000020 12 d2 b7 bb f1 15 61 bd d4 1a cc 3c 8b a2 50 bc
       -0.005609759 -0.054952566 0.024915136 -0.012734066
000030 31 e3 ba bc 29 2f f8 bc 16 c5 0b 3b 5f 54 0f bd
       -0.022813411 -0.030295925 0.002132719 -0.034992572

fc2.weight f4 [2, 16]
000000 fc 87 8b bd a9 06 d9 bd 17 f1 d0 3d 54 ea b5 bb
       -0.06813046 -0.105969734 0.10202234 -0.0055516157
000010 c2 53 1f be 12 d0 06 be 75 b7 18 bd ad d0 db 3d
       -0.15559295 -0.1316531 -0.037284333 0.10733161
000020 28 e2 50 be d5 dd 1e 3e 1b 45 e2 bd 2a 3e 4a 3e
       -0.20398772 0.1551431 -0.11048337 0.19750276
000030 3a 30 1b 3e c3 53 a3 3d 7f 0e c1 bd ff 54 3e 3e
       0.15155116 0.07974961 -0.09426593 0.18587111
000040 c2 50 03 3e 93 82 34 be 05 73 cc bc 70 e7 db bd
       0.12823775 -0.17627935 -0.02495719 -0.107375026
000050 9f 45 28 3d 44 43 87 3d b4 9e 1f be c9 28 92 bd
       0.04108202 0.06604627 -0.15587884 -0.071366854
000060 2d 99 33 bd 95 1c 72 3c f2 14 5d 3d b8 91 d0 3d
       -0.04384725 0.014777322 0.053975053 0.10184044
000070 07 6c 67 3d 9c 8b 99 bd 2b 0d e7 3d 58 30 a4 3d
       0.056499507 -0.074973315 0.112818085 0.08017033

fc2.bias f4 [2]
000000 d7 69 97 3d 12 81 7b be
       0.07393234 -0.24560955
